HubertModel(
  (feature_extractor): HubertFeatureEncoder(
    (conv_layers): ModuleList(
      (0): HubertGroupNormConvLayer(
        (conv): Conv1d(1, 512, kernel_size=(10,), stride=(5,), bias=False)
        (activation): GELUActivation()
        (layer_norm): GroupNorm(512, 512, eps=1e-05, affine=True)
      )
      (1-4): 4 x HubertNoLayerNormConvLayer(
        (conv): Conv1d(512, 512, kernel_size=(3,), stride=(2,), bias=False)
        (activation): GELUActivation()
      )
      (5-6): 2 x HubertNoLayerNormConvLayer(
        (conv): Conv1d(512, 512, kernel_size=(2,), stride=(2,), bias=False)
        (activation): GELUActivation()
      )
    )
  )
  (feature_projection): HubertFeatureProjection(
    (layer_norm): LayerNorm((512,), eps=1e-05, elementwise_affine=True)
    (projection): Linear(in_features=512, out_features=768, bias=True)
    (dropout): Dropout(p=0.1, inplace=False)
  )
  (encoder): HubertEncoder(
    (pos_conv_embed): HubertPositionalConvEmbedding(
      (conv): ParametrizedConv1d(
        768, 768, kernel_size=(128,), stride=(1,), padding=(64,), groups=16
        (parametrizations): ModuleDict(
          (weight): ParametrizationList(
            (0): _WeightNorm()
          )
        )
      )
      (padding): HubertSamePadLayer()
      (activation): GELUActivation()
    )
    (layer_norm): LayerNorm((768,), eps=1e-05, elementwise_affine=True)
    (dropout): Dropout(p=0.1, inplace=False)
    (layers): ModuleList(
      (0-11): 12 x HubertEncoderLayer(
        (attention): HubertAttention(
          (k_proj): Linear(in_features=768, out_features=768, bias=True)
          (v_proj): Linear(in_features=768, out_features=768, bias=True)
          (q_proj): Linear(in_features=768, out_features=768, bias=True)
          (out_proj): Linear(in_features=768, out_features=768, bias=True)
        )
        (dropout): Dropout(p=0.1, inplace=False)
        (layer_norm): LayerNorm((768,), eps=1e-05, elementwise_affine=True)
        (feed_forward): HubertFeedForward(
          (intermediate_dropout): Dropout(p=0.1, inplace=False)
          (intermediate_dense): Linear(in_features=768, out_features=3072, bias=True)
          (intermediate_act_fn): GELUActivation()
          (output_dense): Linear(in_features=3072, out_features=768, bias=True)
          (output_dropout): Dropout(p=0.1, inplace=False)
        )
        (final_layer_norm): LayerNorm((768,), eps=1e-05, elementwise_affine=True)
      )
    )
  )
)
HubertConfig {
  "activation_dropout": 0.1,
  "apply_spec_augment": true,
  "architectures": [
    "HubertModel"
  ],
  "attention_dropout": 0.1,
  "bos_token_id": 1,
  "classifier_proj_size": 256,
  "conv_bias": false,
  "conv_dim": [
    512,
    512,
    512,
    512,
    512,
    512,
    512
  ],
  "conv_kernel": [
    10,
    3,
…
